Model_Weights/TRPO/policy_net_weights.pth (torch, 11332 bytes, 8 tensors)

fc1.weight f4 [32, 17]
0	0x3b44ea4c	0.0030046878
1	0x3dd9a9e1	0.10628105
2	0xbe52b5fd	-0.20577236
3	0xbe2d4dc1	-0.16924192
4	0xbde8fe39	-0.11376614
5	0x3d8eea9e	0.069783434
6	0xbadb2a88	-0.0016721049
7	0x3e5063d4	0.20350581
8	0xbc1ab5b5	-0.009442736
9	0x3cc5fa02	0.024167065
10	0xbe1ceb75	-0.15324195
11	0xbdfab324	-0.122411996
12	0xbd3ff9fc	-0.046869263
13	0xbda52b5d	-0.080649115
14	0xbd122d64	-0.03568782
15	0x3e0298b1	0.1275356
16	0x3ea0567e	0.31315988
17	0x3e12002d	0.1425788
18	0xbeb9d5e0	-0.36295986
19	0xbdcee612	-0.10102476
20	0x3ddafc02	0.10692598
21	0x3e5633ad	0.2091815
22	0xbcbdc491	-0.02316502
23	0x3e43b9c2	0.1911383
24	0xbd259a5a	-0.040430404
25	0x3d17e9a6	0.03708806
26	0x3e70428a	0.23462883
27	0xbe8d383c	-0.27581966
28	0xbeaf1521	-0.34195808
29	0x3d336493	0.043797087
30	0x3dbbe0e5	0.091737546
31	0x3e2b20f9	0.16711797
32	0xbe669d02	-0.22520831
33	0xbd4a2d43	-0.04935957
34	0xbe251932	-0.16122892
35	0xbe1e9279	-0.15485562
36	0xbe051c9b	-0.12999193
37	0x3e54aaec	0.20768327
38	0x3da97b35	0.08275453
39	0x3dd9b9ab	0.106311165
40	0xbbb73e22	-0.0055921236
41	0xbe0cb80b	-0.13742082
42	0x3d24b45e	0.040211074
43	0xbe5e1e60	-0.21691275
44	0xbe141060	-0.14459372
45	0xbd3b7aff	-0.045771595
46	0x3e50bd54	0.20384723
47	0x3dbb5c69	0.09148485
48	0xbe63ae9c	-0.22234577
49	0xbd983bb1	-0.0743326
50	0x3e1bd0c6	0.1521636
51	0x3e8029fa	0.25032026
52	0x3e16d952	0.14731339
53	0x3d73a43f	0.05948281
54	0x3e402cb0	0.18767047
55	0xbe23be82	-0.15990642
56	0x3d3d446c	0.04620783
57	0xbe80244e	-0.25027698
58	0xbe42a7fd	-0.19009395
59	0xbe13ea96	-0.14444956
60	0x3d98ce4c	0.07461223
61	0x3e48b71e	0.19601104
62	0xbdbcd219	-0.092197604
63	0xbde2a4cd	-0.110665895
64	0x3db010e7	0.08596974
65	0xbd7c2ccc	-0.06156616
66	0xbe99748e	-0.29971737
67	0x3d2f6c20	0.042827725
68	0x3e253c7c	0.16136354
69	0x3e970fde	0.29504293
70	0xbe54142a	-0.20710817
71	0xbdbf8176	-0.093508646
72	0x3dead4ed	0.114663936
73	0x3e6712fc	0.22565836
74	0x3e76d667	0.24105226
75	0x3e6c4950	0.23074841
76	0x3de9590d	0.11393938
77	0xbdd82486	-0.10553841
78	0x3e114c6e	0.14189312
79	0xbe94a001	-0.29028323
80	0xbf05ea82	-0.52310956
81	0x3cc22bb6	0.023702484
82	0x3e35e199	0.1776184
83	0xbe76fa51	-0.24118926
84	0x3de7af7c	0.11312768
85	0xbd4463bb	-0.047946673
86	0x3db60933	0.08888473
87	0xbdd4f8c9	-0.103990145
88	0x3d9d73ff	0.0768814
89	0xbe11c49e	-0.1423516
90	0x3dd29498	0.10282248
91	0x3e15de08	0.1463548
92	0x3e38ca1c	0.18045849
93	0x3d8f981d	0.07011435
94	0xbe3f8482	-0.18702891
95	0xbe232e38	-0.159356
96	0xbd7413ed	-0.059589315
97	0x3e54e311	0.20789744
98	0xbe2f702a	-0.17132631
99	0xbe554ba7	-0.2082964
100	0x3e37e9b0	0.17960238
101	0x3ddcdc5e	0.10784219
102	0xbdc7389e	-0.09727596
103	0xbd743778	-0.05962321
104	0xbe82d1af	-0.255506
105	0xbc11fee0	-0.008910865
106	0xbe396c72	-0.18107775
107	0xbe40a7ed	-0.18814059
108	0xbc9d8d20	-0.019232333
109	0x3cfddbe2	0.030988637
110	0xbdab8d41	-0.083765514
111	0x3e0ed721	0.13949253
112	0xbe35ec5e	-0.17765948
113	0x3e05bbe1	0.13059951
114	0xbbb6bdc8	-0.005576823
115	0xbe6012ed	-0.2188222
116	0xbdf1ef55	-0.11813227
117	0xbc4f32db	-0.012646402
118	0x3d6ff5d8	0.058584064
119	0x3d8f381c	0.06993124
120	0x3dadc264	0.08484343
121	0x3c55dd03	0.013053182
122	0xbe0ce2cf	-0.13758396
123	0x3df0d8a4	0.11760071
124	0xbe889e83	-0.26683435
125	0xbe19d4b8	-0.15022552
126	0xbd8ce691	-0.068799146
127	0xbe04638a	-0.12928596
128	0xbd9ac6e8	-0.075574696
129	0xbe21fa37	-0.15818106
130	0x3c07f30b	0.008297692
131	0xbe425500	-0.18977737
132	0xbe2f8b42	-0.17142966
133	0x3dae9944	0.08525327
134	0x3e7281f6	0.23682389
135	0x3be3c17a	0.0069505544
136	0x3c4d4a05	0.012529855
137	0xbe1d6e50	-0.15374112
138	0x3cffc9e2	0.031224195
139	0x3e148582	0.14504054
140	0x3e6b7eef	0.2299764
141	0x3e1cbd29	0.15306534
142	0x3e62297e	0.2208614
143	0xbc818736	-0.015811544
144	0xbe607606	-0.21920022
145	0xbde41566	-0.11136894
146	0x3dede46e	0.11615835
147	0x3da58702	0.08082391
148	0xbe5f30a2	-0.21795896
149	0xbd1d4b5d	-0.03840195
150	0xbe564832	-0.20925978
151	0xbe3b537c	-0.18293566
152	0x3c960007	0.01831056
153	0x3e0937f3	0.13400249
154	0x3e484440	0.19557285
155	0xbe7a2d1e	-0.24431273
156	0x3e1248e2	0.14285615
157	0xbe4ab171	-0.19794251
158	0xbd2791f1	-0.040910665
159	0xbdbb8a9b	-0.09157296
160	0xbd2c2513	-0.042027544
161	0xbd769aa0	-0.060206056
162	0xbe5e99d2	-0.21738365
163	0xbe678d42	-0.2261248
164	0xbe08687a	-0.13321105
165	0xbc909282	-0.017647985
166	0xbdc41cb2	-0.09575786
167	0x3e04e439	0.12977685
168	0xbe3caa68	-0.1842438
169	0x3c74f65c	0.014951315
170	0x3e468da1	0.19389965
171	0xbd12408a	-0.03570608
172	0x3e59daf7	0.21274935
173	0x3da038f6	0.078233644
174	0xbe5b16d5	-0.21395428
175	0x3e42e85e	0.19033954
176	0x39e92670	0.0004446986
177	0xbda57de8	-0.08080655
178	0x3e67527c	0.22590059
179	0xbe647c0c	-0.22312945
180	0x3aff716d	0.001948876
181	0xbd8ec941	-0.0697198
182	0x3e882d09	0.2659686
183	0xbe30d748	-0.17269623
184	0x3e14372d	0.14474173
185	0x3deb12b6	0.11478178
186	0x3e0e0286	0.1386815
187	0xbd4542ad	-0.04815929
188	0xbe1b9429	-0.15193237
189	0x3e1f6e51	0.15569426
190	0x3e3ea223	0.18616538
191	0x3e28a370	0.16468596
192	0xbe3b4ca6	-0.18290958
193	0xbc77f17e	-0.01513326
194	0xbe27e0d4	-0.16394359
195	0xbe19a364	-0.15003735
196	0xbdf21a58	-0.11821431
197	0x3da6b35f	0.08139681
198	0xbe09ffa0	-0.1347642
199	0xbd6e36cc	-0.058157727
200	0x3dbf04b1	0.09327067
201	0x3e227c31	0.15867688
202	0xbea41723	-0.32048902
203	0xbe3606d4	-0.17776042
204	0xbe1031c2	-0.14081481
205	0x3ae807e2	0.0017702545
206	0xbdac933a	-0.08426519
207	0x3e5da820	0.21646166
208	0x3d8ef178	0.0697965
209	0x3c953d64	0.01821775
210	0xbc899206	-0.016793262
211	0xbd4611b4	-0.048356727
212	0x3ce31259	0.02771871
213	0xbd9df074	-0.077118784
214	0xbd521716	-0.051291548
215	0x3d50b136	0.05095025
216	0xbe9fdba4	-0.3122226
217	0x3da73cb7	0.08165877
218	0x3e49828e	0.19678709
219	0xbd7c19c5	-0.061548013
220	0xbd04985d	-0.032371867
221	0x3e6353c1	0.22199918
222	0x3de8fafd	0.11375997
223	0x3c298a6e	0.010347946
224	0xbe4f6d02	-0.20256427
225	0x3de4f2f2	0.11179151
226	0xbe07a4d5	-0.13246472
227	0xbd58fa04	-0.05297281
228	0xbd7cdca2	-0.06173385
229	0xbbbd0705	-0.005768659
230	0x3c96b19c	0.018395238
231	0x3e762805	0.24038704
232	0xbded6e94	-0.11593357
233	0x3e9570aa	0.29187518
234	0x3eadc50a	0.3393939
235	0xbd7c64f5	-0.061619718
236	0xbdf9c5c6	-0.121959254
237	0xbe7384f0	-0.2378118
238	0xbdc89aed	-0.09795175
239	0x3e005a2f	0.12534402
240	0x3dd443d2	0.10364498
241	0x3e2db238	0.16962516
242	0xbdcee7dd	-0.10102818
243	0x3c081b27	0.008307255
244	0x3dcc7159	0.09982557
245	0xbe6ff22b	-0.23432223
246	0x3e256e99	0.16155471
247	0xbe5815a8	-0.21102011
248	0x3d00230a	0.031283416
249	0xbe163657	-0.14669167
250	0xbe7161f4	-0.23572522
251	0x3c93e0a0	0.018051445
252	0x3e407e85	0.18798263
253	0xbcf1c3c4	-0.029512294
254	0xbe1df5c4	-0.15425783
255	0xbdd7eea1	-0.10543562

fc1.bias f4 [32]
0	0x3d097c01	0.033565525
1	0x3e4555ef	0.19271062
2	0xbe1d4914	-0.15359908
3	0x3db5ce79	0.08877272
4	0xbdcc04ad	-0.09961829
5	0x3e6d1bad	0.23155089
6	0xbe7acb2e	-0.2449157
7	0xbe8e6010	-0.27807665
8	0x3e63c29a	0.22242203
9	0xbe3880fd	-0.18017955
10	0x3deaec5c	0.11470863
11	0xbd00ff00	-0.031493187
12	0xbd9bf349	-0.07614762
13	0xbc103724	-0.008802209
14	0x3e27db47	0.16392241
15	0x3d0d9e7b	0.034574967
16	0xbe663333	-0.22480468
17	0xbe1cad66	-0.15300521
18	0xbd9917e9	-0.074752636
19	0x3e340fbb	0.17584126
20	0xbe26fe55	-0.16307957
21	0x3e744330	0.23853755
22	0xbd424088	-0.047424823
23	0xbd85eef8	-0.0653972
24	0x3e6a98bc	0.22909826
25	0x3e13fab8	0.1445111
26	0x3e719c14	0.23594695
27	0x3e257e3a	0.16161433
28	0xbdad7d11	-0.0847112
29	0xbda87a1f	-0.08226418
30	0x3cd08d4c	0.025458
31	0x3e6078f6	0.21921143

fc2.weight f4 [32, 32]
0	0xbe114ea6	-0.14190158
1	0xbe4a397c	-0.19748491
2	0x3dce275d	0.10066102
3	0x3d57f07b	0.052719574
4	0xbe388917	-0.18021046
5	0xbdc8e497	-0.09809225
6	0xbe189e0e	-0.14904043
7	0xbc7b9bbf	-0.015356957
8	0xbd833e0e	-0.0640832
9	0xbdb89391	-0.09012521
10	0x3d8e6303	0.06952479
11	0x3d4f0ff2	0.050552316
12	0x3db9c34b	0.09070452
13	0x3e345311	0.17609812
14	0xbd5bdfd5	-0.05368026
15	0xbdc8881d	-0.097915865
16	0xbe45b9be	-0.19309136
17	0x3e214e17	0.15752445
18	0x3e5b6d7c	0.21428484
19	0x3cc37ec1	0.023864152
20	0xbe23d504	-0.15999228
21	0x3e711cb7	0.2354611
22	0x3e5feac7	0.21866904
23	0x3e2ad775	0.16683753
24	0xbe0beb43	-0.13663964
25	0xbdc3fcd8	-0.095697105
26	0xbe3da5c7	-0.1852027
27	0x3e0243cd	0.12721176
28	0xbdd3e211	-0.10345853
29	0xbdac3295	-0.08408085
30	0x3dc0351e	0.09385131
31	0xbe143952	-0.14474991
32	0xbaf60601	-0.00187701
33	0xbd813c1c	-0.06310293
34	0x3c624712	0.01381089
35	0xbd5c0cb3	-0.05372305
36	0x3ed073fa	0.40713483
37	0x3d8cedff	0.06881332
38	0x3e419eb4	0.18908197
39	0x3e29420d	0.16529103
40	0x3d369bb6	0.04458209
41	0x3ca30efc	0.019904606
42	0x3e2c17d5	0.16805966
43	0xbe01dfbd	-0.12683006
44	0xbd7a127c	-0.061052784
45	0x3e9b6190	0.30347872
46	0xbcb60793	-0.022220409
47	0xbe0b7444	-0.1361857
48	0xbd4ebd91	-0.050473753
49	0xbe02caad	-0.12772627
50	0x3dba2c49	0.09090478
51	0x3e01b7e8	0.12667811
52	0xbdd5883c	-0.10426375
53	0xbe572eb0	-0.21013904
54	0x3e176373	0.1478403
55	0x3e18b51e	0.1491284
56	0x3e2511b0	0.16120028
57	0xbbc14101	-0.0058976416
58	0x3e896033	0.26831207
59	0xbdb93cc3	-0.090447925
60	0xbc92fd29	-0.017942982
61	0xbc8489bf	-0.016178964
62	0xbd2b8fbc	-0.041885123
63	0x3d12fa2f	0.035883125
64	0xbe296dae	-0.16545746
65	0xbd5131a4	-0.05107273
66	0xbcc7da0b	-0.024395963
67	0xbd74ad9b	-0.059735876
68	0xbe47dc9b	-0.19517748
69	0x3d0c06d5	0.034186203
70	0xbdfe64b6	-0.12421553
71	0x3e340c6c	0.17582864
72	0xbe292d2f	-0.16521142
73	0xbd56e0a5	-0.05246033
74	0x3d9ca591	0.07648767
75	0xbdf3dd1b	-0.11907407
76	0x3df8a74e	0.12141286
77	0xbe2bd4c9	-0.1678039
78	0xbe0c4ca3	-0.1370111
79	0xbe4be11a	-0.19910088
80	0x3d2b960d	0.041891146
81	0x3e098366	0.13429031
82	0xbda3302a	-0.07968171
83	0x3ce43c5a	0.02786081
84	0x3cdee4e5	0.027208755
85	0xbdb20aa1	-0.086934336
86	0x3d8fc1b4	0.07019368
87	0xbe3a3c8e	-0.18187162
88	0xbc55f721	-0.013059408
89	0x3d37b01a	0.044845678
90	0xbd80fce8	-0.06298238
91	0x3d8b1f31	0.06793059
92	0xbdab91ca	-0.083774164
93	0x3dbc7df1	0.09203709
94	0xbe8546be	-0.26030535
95	0xbd9bb34e	-0.07602559
96	0x3d001ac0	0.03127551
97	0x3df201b1	0.11816729
98	0x3d8edb39	0.06975407
99	0x3deeefaa	0.11666806
100	0x3d4aafdb	0.049484115
101	0xbe03d9f3	-0.1287611
102	0x3dc03e83	0.09386923
103	0xbdff4179	-0.1246366
104	0x3e086ab5	0.13321956
105	0xbdbeec26	-0.093223855
106	0xbd78fcf9	-0.06078813
107	0x3c4955ba	0.012288505
108	0x3e162888	0.14663899
109	0x3e19cb8a	0.1501905
110	0xbd138837	-0.036018576
111	0xbc80f069	-0.015739636
112	0x3e0360d9	0.12829913
113	0x3cf85570	0.030314177
114	0x3d9b27d7	0.07575958
115	0xbe451dae	-0.19249603
116	0x3dfa9705	0.12235836
117	0x3e4a21c7	0.19739448
118	0x3d872305	0.06598476
119	0xbe4e8221	-0.20166828
120	0xbd106638	-0.035253733
121	0xbd2f78a9	-0.04283968
122	0x3d514965	0.051095385
123	0x3d868ba0	0.065696
124	0xbd751d50	-0.059842408
125	0x3e186402	0.148819
126	0xbd1ae532	-0.037816234
127	0x3a6d2f6c	0.0009047899
128	0xbc9be980	-0.01903224
129	0x3e3bda2e	0.18344948
130	0x3dc7a3cc	0.09748039
131	0x3eaef685	0.34172454
132	0x3e072270	0.1319673
133	0x3dd535d3	0.10410657
134	0xbd69872a	-0.057013668
135	0x3c7ae509	0.015313395
136	0x3b0fb07c	0.0021925261
137	0xbde7007a	-0.11279388
138	0x3e550d0e	0.20805761
139	0x3cedbc50	0.029020458
140	0x3e1d749f	0.15376519
141	0xbce67957	-0.028134031
142	0x3e67239d	0.22572179
143	0x3dce6b6f	0.10079085
144	0x3e0a5c46	0.13511762
145	0xbaeeb322	-0.0018211345
146	0xbd83691d	-0.06416533
147	0x3dd0fbf1	0.10204304
148	0xbc447698	-0.011991166
149	0x3de5ead0	0.112264276
150	0x3dd5476e	0.10414015
151	0xbdf09ede	-0.117490515
152	0x3e58dadf	0.21177243
153	0xbda9d27a	-0.08292098
154	0x3e327419	0.174271
155	0x3e6b2c00	0.22966003
156	0xbda7bf52	-0.08190788
157	0xbc9a3a9b	-0.018826773
158	0xbd8ebf2c	-0.06970057
159	0x3e9997cf	0.29998633
160	0xbd93359e	-0.07187961
161	0xbdd633e4	-0.10459116
162	0x3db9e09f	0.09076046
163	0xbe3615a3	-0.17781691
164	0xbda91e6c	-0.08257756
165	0x3be79d44	0.007068308
166	0x3e4e6de2	0.20159104
167	0x3c5de138	0.013542466
168	0x3cc8ba93	0.024503028
169	0x3e247c10	0.16062951
170	0x3dfe3634	0.12412682
171	0xbdd928bb	-0.10603472
172	0xbc86abb5	-0.016439298
173	0xbda2b64b	-0.07944926
174	0xbde13ffa	-0.10998531
175	0x3ba378ef	0.0049887816
176	0x3dfc0b89	0.12306888
177	0x3e21072e	0.15725395
178	0x3d88cbda	0.066795066
179	0x3e2a0370	0.16602874
180	0xbd0e3ebb	-0.034727793
181	0x3e4d94c3	0.2007628
182	0xbd7d9c1e	-0.061916463
183	0xbd0c5cc2	-0.03426815
184	0x3d99b8de	0.07505964
185	0x3ca01890	0.019542962
186	0xbe95f1c0	-0.29286003
187	0x3dc4a326	0.096014306
188	0x3c951020	0.018196166
189	0xbe3735df	-0.17891644
190	0xbc94503d	-0.018104667
191	0x3dc241e1	0.09485222
192	0xbe3462de	-0.1761584
193	0xbd8cb3d5	-0.06870238
194	0x3d63f00a	0.05564884
195	0xbe2a336b	-0.16621177
196	0x3daeabf8	0.08528894
197	0xbb507657	-0.0031808817
198	0x3d8603e8	0.06543714
199	0xbe32452c	-0.174092
200	0x3dc502a1	0.09619642
201	0xbdf15929	-0.11784584
202	0x3e17b3a8	0.14814627
203	0xbe2f7e29	-0.1713797
204	0xbe455f79	-0.19274701
205	0x3d991127	0.07473975
206	0x3ceb33fa	0.028711308
207	0x3c01bebc	0.00791901
208	0xbde0fcfa	-0.109857515
209	0xbd98795e	-0.07445024
210	0xbd921a2b	-0.071338974
211	0xbe4e5815	-0.20150788
212	0xbc3655ff	-0.0111289015
213	0xb8fbab23	-0.000120004894
214	0xbca91481	-0.02063966
215	0x3c529ca9	0.0128547335
216	0x3dc4cf70	0.09609878
217	0x3c750359	0.014954411
218	0xbdbcc539	-0.09217305
219	0xbdbb3dc1	-0.09142638
220	0xbdf9731f	-0.12180161
221	0xbdfc7de9	-0.12328703
222	0xbd8fafb4	-0.070159346
223	0xbd6a931d	-0.057269204
224	0x3d2a616e	0.041596822
225	0xbde8ab6d	-0.11360822
226	0x3db4f0f6	0.08835022
227	0xbdacd48d	-0.08438978
228	0x3d4f1e10	0.05056578
229	0x3dcd031a	0.10010357
230	0x3e26093d	0.16214462
231	0xbe0590ea	-0.13043562
232	0x3ddb63e8	0.10712415
233	0xbc530221	-0.012878926
234	0xbe1d0451	-0.15333678
235	0xbd372048	-0.04470852
236	0x3d79134f	0.06080943
237	0xbe07ee9c	-0.13274616
238	0xbd3a33c7	-0.045459535
239	0x3d9ec0c6	0.07751612
240	0xbd80418d	-0.06262503
241	0x3de2b3cc	0.1106945
242	0xbd320c56	-0.043468796
243	0xbd02214b	-0.031770032
244	0x3d9b6fd9	0.075896926
245	0xbe11a757	-0.14223991
246	0x3ddd7a8c	0.108143896
247	0xbe289e45	-0.16466625
248	0xbdae6c43	-0.08516743
249	0x3b29526d	0.0025836483
250	0xbe19a366	-0.15003738
251	0xbe007ebb	-0.12548344
252	0x3dc14e76	0.09438793
253	0x3d52660c	0.05136685
254	0x3e2535da	0.16133824
255	0xbd1af338	-0.037829608

fc2.bias f4 [32]
0	0xbcba0783	-0.02270866
1	0x3dc1fcc5	0.0947204
2	0x3cd825f3	0.026385283
3	0xbcc2add3	-0.023764526
4	0x3e8224fa	0.25418836
5	0x3bea827f	0.0071566696
6	0x3c513602	0.012769224
7	0xbc066075	-0.008201708
8	0xbb80dacc	-0.0039323326
9	0xbda34be2	-0.07973458
10	0xbbd1f3b1	-0.006407224
11	0xbd532886	-0.051552318
12	0xbdb49a2d	-0.08818469
13	0x3e4e2ac2	0.20133498
14	0xbe22c657	-0.15895973
15	0x3e86664e	0.26249927
16	0x3dadbce1	0.084832914
17	0xbd01b461	-0.031666163
18	0xbe18a9db	-0.14908545
19	0xbd47e04a	-0.048797883
20	0x3cfe625e	0.031052765
21	0xbdc5774e	-0.09641896
22	0xbe2fbce1	-0.17161895
23	0x3e518921	0.20462467
24	0x3dd59acb	0.10429915
25	0x3dcacce8	0.09902364
26	0x3dce4db4	0.100734144
27	0x3ddbb6a0	0.10728192
28	0x3da583c1	0.08081771
29	0x3dd1b515	0.10239617
30	0xbd4608d9	-0.04834828
31	0x3d982854	0.07429567

mean.weight f4 [6, 32]
0	0x3e46d274	0.19416219
1	0xbc428982	-0.011873605
2	0xbdb78b06	-0.089620635
3	0xbc98000a	-0.018554706
4	0x3c8d4165	0.017243097
5	0x3e460792	0.19338825
6	0x3df778d1	0.12083591
7	0xbcb9297c	-0.02260279
8	0x3e024689	0.1272222
9	0xbe15e0bd	-0.14636512
10	0xbe351e49	-0.17687334
11	0xbe3d70ac	-0.18500012
12	0x3e264d6a	0.16240469
13	0x3d03f5d0	0.032216847
14	0xbe08fa12	-0.13376644
15	0x3e78e59d	0.2430634
16	0xbd91b0b6	-0.07113783
17	0xbdefe8d6	-0.11714332
18	0x3dd6a6bf	0.10481023
19	0x3b9993c4	0.0046868045
20	0xbdd51b7c	-0.10405633
21	0xbe2bd0aa	-0.16778818
22	0x3d8f8a12	0.07008757
23	0x3d1681dd	0.03674494
24	0x3de7afbf	0.11312818
25	0x3d780782	0.060554035
26	0x3c93a657	0.018023653
27	0x3e09bc15	0.13450654
28	0x3c9ef18a	0.019402284
29	0xbdac3e3d	-0.084103085
30	0xbbb4f5ed	-0.0055224807
31	0xbd4b86a4	-0.04968895
32	0xbe574379	-0.21021833
33	0xbb885eda	-0.004161698
34	0xbe339ccc	-0.17540282
35	0x3d332cac	0.043743774
36	0x3e316abb	0.1732587
37	0xbe36949f	-0.17830132
38	0x3cbadaac	0.022809349
39	0xbd5f3e25	-0.054502625
40	0xbe5458fd	-0.20737071
41	0xbd9f6171	-0.07782257
42	0x3dcd9e9f	0.1004002
43	0x3de8d619	0.11368961
44	0x3e6d2872	0.2315996
45	0x3d44f497	0.04808482
46	0xbd3be9d4	-0.045877293
47	0xbe720cd9	-0.23637713
48	0xbe288d77	-0.16460215
49	0x3e15b2b1	0.14618947
50	0xbdcd4996	-0.10023801
51	0xbe7704b5	-0.2412289
52	0xbd979771	-0.07401932
53	0xbdf62098	-0.120179355
54	0xbe112831	-0.14175488
55	0x3e12c538	0.14333045
56	0xbdc90eb9	-0.09817261
57	0x3dbde97c	0.09273049
58	0x3e23cd6c	0.15996331
59	0x3e26a3e2	0.16273454
60	0x3deb76d7	0.11497276
61	0xbe586079	-0.21130551
62	0xbd496704	-0.04917051
63	0x3e52c13f	0.2058153
64	0x3d3b3b41	0.045710806
65	0x3cf31c19	0.029676484
66	0xbe42c403	-0.19020085
67	0xbdccdd8c	-0.10003194
68	0x3d44d08f	0.04805046
69	0xbe40ca9c	-0.1882729
70	0x3df23d94	0.11828151
71	0x3e10f468	0.14155734
72	0x3d617956	0.055047356
73	0xbe0f629c	-0.1400246
74	0xbc69a199	-0.014259719
75	0xbe10722b	-0.14106052
76	0x3d374d44	0.04475142
77	0xbd0f91b9	-0.03505108
78	0x3e198e7f	0.14995764
79	0x3e041301	0.12897874
80	0xbd7cd7c4	-0.061729208
81	0xbd896eef	-0.06710612
82	0x3d9c1074	0.07620326
83	0xbd34649c	-0.04404126
84	0x3e2add4f	0.16685985
85	0x3d0673e8	0.03282538
86	0x3dbac680	0.09119892
87	0xbdf69d87	-0.12041765
88	0x3c7d1f92	0.0154494215
89	0x3ca35828	0.019939497
90	0xbd826ba9	-0.06368191
91	0xbdeb7bb7	-0.11498206
92	0xbd91f25e	-0.07126306
93	0x39df666d	0.00042610188
94	0x3e92eccf	0.28696296
95	0xbe0e3fab	-0.13891475
96	0xbb4e21f3	-0.003145334
97	0xbe99676b	-0.29961714
98	0xbdb23b77	-0.08702748
99	0xbc60b198	-0.013714217
100	0x3d8d9dca	0.069148615
101	0x3dc1e894	0.09468189
102	0x3dceb875	0.10093776
103	0x3e2c4b47	0.16825591
104	0x3dd1ddb5	0.102473654
105	0xbdce1187	-0.10061937
106	0xbd1bd4b6	-0.038044654
107	0xbd52290a	-0.05130867
108	0xbd2ffd5f	-0.042966243
109	0x3e3e3fbc	0.18579
110	0xbb053264	-0.0020324225
111	0x3e73a012	0.2379153
112	0xbd0d5960	-0.034509063
113	0xbcbb6a55	-0.022877852
114	0xbe83f7da	-0.25775033
115	0xbdf174e2	-0.11789872
116	0xbe4332a0	-0.1906228
117	0x3d474a4d	0.048654843
118	0xbcef94af	-0.029245703
119	0x3d91161f	0.070842974
120	0x3d8a30d9	0.06747598
121	0xbdc3de71	-0.09563912
122	0x3d2aba23	0.04168142
123	0xbe0d4821	-0.13797046
124	0xbe4bfd6c	-0.19920892
125	0xbdadc20e	-0.084842786
126	0xbd524a85	-0.0513406
127	0x3da785a0	0.08179784
128	0xbe6f2cc9	-0.23356928
129	0x3e239228	0.15973723
130	0xbd6fcdde	-0.05854594
131	0xbe12562e	-0.14290687
132	0x3e4e4959	0.20145167
133	0xbde5de9c	-0.112241
134	0x3bce65c4	0.0062987525
135	0x3cff4044	0.031158574
136	0xbc858205	-0.01629735
137	0xbdc09539	-0.09403462
138	0xbd7abfc1	-0.061218027
139	0x3c80be75	0.015715817
140	0x3bf0d33b	0.0073493994
141	0x3e20e1c1	0.15711118
142	0x3cf3fc92	0.02978352
143	0xbe35244c	-0.17689627
144	0xbdcb28a2	-0.099198595
145	0xbd65bc3a	-0.05608771
146	0x3e04b4bd	0.12959571
147	0x3e11697c	0.14200395
148	0x3dad632c	0.08466181
149	0x3c1847dc	0.009294476
150	0x3c77adb2	0.015117096
151	0xbdfa59d1	-0.12224162
152	0xbc52569b	-0.012838031
153	0xbe3c0b26	-0.18363628
154	0x3da8f192	0.08249201
155	0x3d52175a	0.0512918
156	0xbd90beb1	-0.070676215
157	0x3e0c6513	0.13710432
158	0x3bf98237	0.0076144
159	0x3dcc8421	0.09986139
160	0x3d885fbf	0.06658887
161	0x3e662490	0.22474885
162	0xbd332447	-0.04373577
163	0x3d8f3dd4	0.06994215
164	0xbc4bab3a	-0.01243096
165	0xbc8d9772	-0.017284129
166	0x3d9d6b60	0.07686496
167	0x3e15ae28	0.14617217
168	0xbe4da309	-0.20081724
169	0xbe474e54	-0.19463474
170	0xbe191558	-0.14949548
171	0x3e6de89c	0.23233265
172	0xbe5318bf	-0.20614909
173	0x3d2a609b	0.041596036
174	0xbe1cf6e8	-0.15328562
175	0xbe46223f	-0.19349001
176	0xbda38536	-0.07984392
177	0x3e0cd1f5	0.13751967
178	0xbda0f62d	-0.07859454
179	0x3e75818e	0.23975202
180	0x3df25d01	0.11834145
181	0x3daf6743	0.085646175
182	0xbd19848e	-0.03747993
183	0x3d88980c	0.06669626
184	0x3d1e1d62	0.03860224
185	0x3e606e1b	0.21917002
186	0x3d60c15f	0.054871913
187	0xbe359af4	-0.17734891
188	0xbd46f1dd	-0.048570503
189	0xbc962edf	-0.018332897
190	0x3d161146	0.036637567
191	0xbd414ef2	-0.04719443

mean.bias f4 [6]
0	0x3dbc5e18	0.091976345
1	0xbc862d3b	-0.01637899
2	0x3e2e1b86	0.17002687
3	0x3f1d2ebb	0.6139943
4	0x3d87db09	0.066335745
5	0x3e6bede1	0.23039962

std.weight f4 [6, 32]
0	0xbe7c55c1	-0.24642088
1	0xbe888aa5	-0.26668277
2	0xbe38bced	-0.1804082
3	0xbda55c66	-0.08074264
4	0xbe76bc68	-0.24095309
5	0xbe1ba3be	-0.15199181
6	0x3de66bbc	0.112510175
7	0x3e334915	0.17508347
8	0xbd85c231	-0.0653118
9	0x3d0f6bf6	0.03501507
10	0xbca04321	-0.01956326
11	0xbd71ae0d	-0.05900388
12	0xbd47f230	-0.048814952
13	0xbd674a7a	-0.05646751
14	0xbe19396d	-0.14963312
15	0xbeaef0ba	-0.34168035
16	0x3d94d081	0.072663315
17	0x3d580af1	0.05274481
18	0x3e30ecc5	0.1727782
19	0xbdd92f93	-0.10604777
20	0x3c3bc76f	0.011461123
21	0xbdede3df	-0.116157286
22	0x3d6b2f18	0.05741796
23	0xbd5c5ecc	-0.053801343
24	0x3dd23fef	0.102661006
25	0x3d6e2ca2	0.058148034
26	0x3e39169f	0.18075036
27	0xbda692cb	-0.08133467
28	0xbd17671e	-0.036963575
29	0x3de2dff5	0.11077873
30	0xbda80401	-0.08203889
31	0x3e758c48	0.23979294
32	0x3dcb0119	0.09912319
33	0x3e600018	0.21875036
34	0xbd192738	-0.037390918
35	0xbdfe0cb9	-0.124047704
36	0xbe866150	-0.2624612
37	0x3b1e697e	0.0024171765
38	0x3dc1e2e9	0.09467108
39	0x3be0a7b5	0.0068559297
40	0x3df878d7	0.12132423
41	0x3ccd4dd5	0.025061527
42	0x3b93a652	0.004505911
43	0x3e01475d	0.12624879
44	0x3d6be56d	0.057591844
45	0xbda85456	-0.08219211
46	0xbc926b49	-0.017873423
47	0xbe03f77e	-0.1288738
48	0xbd433217	-0.04765519
49	0xbd9ee33f	-0.077581875
50	0x3e41159b	0.18855898
51	0xbdfc61a7	-0.12323313
52	0xbe17e51a	-0.14833489
53	0xbe8debe8	-0.27719045
54	0x3d3e9b2a	0.046534695
55	0xbe7865de	-0.24257609
56	0x3d75ec97	0.060040083
57	0xbe9d3eb3	-0.30711898
58	0xbad6217e	-0.0016336886
59	0xbe5ac743	-0.21365075
60	0xbe42f8db	-0.19040243
61	0x3e0de129	0.13855423
62	0x3e2cac6c	0.16862649
63	0xbe1d262b	-0.15346591
64	0xbdf34b23	-0.118795656
65	0xbe9b149d	-0.30289164
66	0xbd909cb4	-0.07061139
67	0xbdf427b6	-0.11921637
68	0x3c4b7742	0.01241857
69	0x3c8e4488	0.017366663
70	0x3d3ed834	0.046592906
71	0x3d3b3204	0.045701995
72	0xbe5e623e	-0.21717164
73	0xbdf87ac3	-0.1213279
74	0xbd83d7b4	-0.064376265
75	0xbd3d62ab	-0.046236675
76	0xbaf62ddb	-0.0018781977
77	0xbd6faa90	-0.05851227
78	0xbe00c2f0	-0.12574363
79	0xbc10fda8	-0.008849539
80	0xbc838f2d	-0.016059482
81	0xbe19cd9f	-0.15019844
82	0x3bc37bc1	0.0059656803
83	0xbdb2e0ef	-0.08734309
84	0x3db45edc	0.088071555
85	0xbddbc334	-0.107305914
86	0x3c9e0587	0.019289745
87	0x3da8c2dc	0.082402915
88	0xbb90cd74	-0.004419023
89	0x3c09bafd	0.008406398
90	0xbdef2d8f	-0.116786115
91	0xbe7bf0cd	-0.24603577
92	0xbe0dea84	-0.13858992
93	0x3e0f285f	0.13980244
94	0xbd33e759	-0.043921802
95	0xbdd07c55	-0.101799645
96	0xbdbf8cf8	-0.093530595
97	0xbdc86e3d	-0.09786651
98	0x3bcf4fce	0.006326652
99	0x3d149f5c	0.03628479
100	0xbe7df937	-0.24802099
101	0xbe6361d5	-0.22205289
102	0x3c03ae34	0.008037139
103	0xbcb393d5	-0.021921078
104	0xbdc5fab7	-0.09666961
105	0xbe18e38b	-0.14930551
106	0x39510052	0.00019931913
107	0x3db875e6	0.09006862
108	0xbe1d51d7	-0.1536325
109	0xbe3ca10e	-0.18420812
110	0xbea1024b	-0.31447062
111	0x3d899ff6	0.06719963
112	0xbddf52f3	-0.10904493
113	0xbd5447d8	-0.051826328
114	0x3b2b158c	0.0026105372
115	0x3e3b76c6	0.18307027
116	0xbc4b3faf	-0.01240532
117	0xbda1ff2e	-0.0791
118	0x3e1823e7	0.14857446
119	0xbe12cbed	-0.14335604
120	0xbd8a9ec1	-0.06768561
121	0x3d2a74f3	0.041615438
122	0x3dd3b598	0.10337371
123	0xbe14aaeb	-0.14518325
124	0xbe46deb2	-0.19420889
125	0xbe2211c0	-0.15827084
126	0x3e07d879	0.13266172
127	0xbeb577ac	-0.35442865
128	0xbd3c2285	-0.045931358
129	0xbd730afa	-0.05933664
130	0x3e0b00bf	0.13574503
131	0xbda44570	-0.08021057
132	0xbe5d50fa	-0.21612921
133	0x3dd38d5e	0.10329698
134	0xbd00b2e0	-0.03142059
135	0xbdb71d73	-0.08941164
136	0xbe30be80	-0.1726017
137	0xbe0199e8	-0.12656367
138	0xbe10d527	-0.14143811
139	0xbe377a4a	-0.17917743
140	0xbe1acdcf	-0.15117572
141	0xbd18120c	-0.037126586
142	0x3dd1e304	0.10248378
143	0xbe6f6291	-0.23377444
144	0xbbc3f33b	-0.005979923
145	0xbd84810d	-0.06469927
146	0x3e0abc3a	0.13548365
147	0x3df88594	0.12134853
148	0xbd43a0ac	-0.04776065
149	0xbde38da6	-0.11111002
150	0xbdf7158e	-0.12064658
151	0xbd8229a3	-0.06355598
152	0x3deaa926	0.11458044
153	0xbdcda968	-0.10042077
154	0xbc2f898e	-0.010713948
155	0xbdc44d66	-0.09585075
156	0x3d71b81e	0.05901348
157	0xbe141b67	-0.14463578
158	0xbd01271b	-0.031531435
159	0x3d8db2bd	0.06918857
160	0xbe3a918d	-0.18219586
161	0xbcdfecfa	-0.027334679
162	0x3dc15d3c	0.09441611
163	0xbe2f1586	-0.17098054
164	0xbe9af1ba	-0.30262548
165	0x3d787353	0.060656857
166	0x3c532d57	0.012889228
167	0xbc715a14	-0.014730949
168	0xbe1bf5dd	-0.15230508
169	0x3ddbd26e	0.10733496
170	0x3dfaf455	0.12253634
171	0xbd037e8b	-0.032103103
172	0xbdbeccc1	-0.093163975
173	0x3e25a75b	0.16177122
174	0x3e533b30	0.20628047
175	0xbe1082bd	-0.14112373
176	0xbcc7d4b3	-0.024393415
177	0x3da43cc7	0.08019405
178	0xbdb75157	-0.08951061
179	0x3e6a5eef	0.22887777
180	0xbd737f93	-0.059447836
181	0xbd0b8f7c	-0.034072384
182	0xbe04caf8	-0.12968051
183	0xbd396b83	-0.045268547
184	0xbdf79ee8	-0.12090856
185	0xbe60b62c	-0.21944493
186	0x3d886441	0.06659747
187	0xbd6fdd3c	-0.058560595
188	0xbe2dc6bd	-0.16970344
189	0xbdf16d7b	-0.1178846
190	0xbe30855d	-0.17238374
191	0xbe4139e9	-0.18869747

std.bias f4 [6]
0	0xbe96e570	-0.29471922
1	0xbee665f8	-0.4499967
2	0xbe8f55cc	-0.27995145
3	0xbedf3080	-0.4359169
4	0xbd40eac7	-0.0470989
5	0xbe97e625	-0.29667774
