Model_Weights/TRPO/value_net_weights.pth (torch, 9324 bytes, 5 tensors)

fc1.weight f4 [32, 17]
0	0xbef1f64f	-0.4725823
1	0x3f7b0616	0.9805616
2	0xbe8b2441	-0.27176097
3	0xbeb2a8c5	-0.34894386
4	0xbe5222eb	-0.20521133
5	0x3f0dbf08	0.55369616
6	0x3f480d82	0.7814561
7	0x3f32d43c	0.69855094
8	0xbe18fb77	-0.14939676
9	0xbe517e53	-0.20458345
10	0x3c5769fd	0.013147828
11	0x3ccc4b91	0.024938377
12	0x3be0dd52	0.006862321
13	0xbc006d06	-0.007838493
14	0x3d023905	0.03179266
15	0x3d10080a	0.035163917
16	0xbb0ceb04	-0.0021502385
17	0xbe8a95d8	-0.27067447
18	0x3f0c2af0	0.5475302
19	0xbe5f574b	-0.21810643
20	0xbf349443	-0.7053873
21	0x3e7d0484	0.24708754
22	0x3efb9407	0.49136373
23	0x3f3b86d4	0.73252606
24	0x3ee6fca7	0.45114633
25	0xbec0d6ac	-0.37663782
26	0x3d318ba6	0.04334607
27	0x3e7996ca	0.24373928
28	0x3da93cb8	0.08263534
29	0x3d9bfc69	0.07616503
30	0xbc205b57	-0.009787402
31	0x3ccbb17e	0.024864908
32	0xbb593cb5	-0.0033147756
33	0xbd10683f	-0.035255667
34	0xbe620987	-0.22073947
35	0x3eddc832	0.433168
36	0x3e7ffd0f	0.24998878
37	0x3cf6c47e	0.030122992
38	0x3de15235	0.11002008
39	0x3e89db25	0.26925007
40	0x3da64166	0.081179425
41	0xbdf95cc8	-0.121759
42	0xbe225b2e	-0.15855095
43	0x3ec4c43d	0.38430968
44	0xbcc16674	-0.023608424
45	0xbd82ea16	-0.063923046
46	0x3e0bf05e	0.13665912
47	0xbc8be175	-0.01707528
48	0xbd98bbab	-0.0745767
49	0x3d0528dc	0.03250967
50	0xbca8c18e	-0.020600107
51	0xbe9097e4	-0.28240883
52	0xbe70f8e6	-0.23532447
53	0xbf2ddd86	-0.6791614
54	0xbf140568	-0.5782075
55	0xbdf7d7b2	-0.121016875
56	0x3e64cf2b	0.22344653
57	0x3e8cf293	0.2752882
58	0x3e16bfae	0.14721557
59	0x3ec4ba99	0.38423613
60	0xbe451e3a	-0.19249812
61	0xbeb96a8d	-0.36214104
62	0xbdb31fcc	-0.08746299
63	0xbd4dd804	-0.050254837
64	0x3b0be666	0.0021347045
65	0xbdd155f7	-0.102214746
66	0xbd9de8dc	-0.0771043
67	0xbd001f5b	-0.031279903
68	0xbddf9175	-0.109164156
69	0x3e998338	0.29982924
70	0xbefcf6db	-0.49407086
71	0xbde6d6c8	-0.11271435
72	0xbe9c73be	-0.30557054
73	0x3e930c5a	0.2872036
74	0x3e25e755	0.16201527
75	0x3dffe5e4	0.1249502
76	0x3ed13db4	0.40867388
77	0x3efd5943	0.49482164
78	0x3e532482	0.20619395
79	0xbcf259e5	-0.02958388
80	0x3e13b3a7	0.14424
81	0x3cb616d7	0.022227688
82	0xbd317dec	-0.04333298
83	0xbcc9de46	-0.024642121
84	0xbd9ddcaa	-0.07708104
85	0xbd1268a6	-0.03574433
86	0x3e9479d5	0.289992
87	0xbe09ac96	-0.13444743
88	0xbeeca85d	-0.462222
89	0xbe6468b3	-0.22305565
90	0x3f0392f0	0.51396084
91	0x3f21bf79	0.6318279
92	0x3eeffe09	0.468735
93	0xbeff1b01	-0.4982529
94	0xbd9151f3	-0.07095709
95	0x3de144c1	0.10999442
96	0x3dbcd32d	0.09219966
97	0x3c6bc082	0.014389159
98	0x3ddb1f98	0.106993854
99	0x3d77f08d	0.06053214
100	0x3d3572f8	0.044299096
101	0xbdb88d9b	-0.09011384
102	0xbe98c9e9	-0.29841545
103	0x3e7b3132	0.24530485
104	0xbec1a57d	-0.3782157
105	0xbd6036be	-0.054739706
106	0x3cad3fc1	0.021148564
107	0x3e9d7713	0.3075491
108	0x3f1c4d3d	0.61055356
109	0x3a974028	0.0011539506
110	0xbec2224a	-0.37916785
111	0xbe658fb2	-0.22418097
112	0xbddca167	-0.107729726
113	0x3db8d5dd	0.09025166
114	0xbe26c935	-0.16287692
115	0xbb741975	-0.003724662
116	0xbe193d64	-0.14964825
117	0xbc9f98b7	-0.019482
118	0xbd1db362	-0.03850115
119	0xbea3defa	-0.32006055
120	0x3b9e79ef	0.004836313
121	0xbe1df0d2	-0.15423897
122	0xbe07e721	-0.13271762
123	0x3e38a977	0.18033396
124	0x3ecd663c	0.4011706
125	0x3f02e707	0.5113377
126	0x3e9e2cb2	0.30893475
127	0xbecc6940	-0.3992405
128	0x3e1f845a	0.15577832
129	0xbe9ba3c7	-0.3039839
130	0xbdf52302	-0.11969568
131	0xbdd38b8a	-0.10329349
132	0x3e12eaca	0.14347377
133	0x3bf358a4	0.0074263383
134	0xbd7ec7f0	-0.062202394
135	0xbc18890e	-0.00931002
136	0xbf07bd61	-0.53023344
137	0x3f24730b	0.6423804
138	0x3cd34d34	0.02579365
139	0xbed74001	-0.4204102
140	0x3dd1665b	0.10224601
141	0x3f3c9532	0.73665154
142	0x3ed42b77	0.4143941
143	0x3dc14c33	0.09438362
144	0x3da8b923	0.08238437
145	0xbc974846	-0.01846708
146	0x3d1e0d1e	0.03858673
147	0x3cc03653	0.023463404
148	0x3ce17a1a	0.027524043
149	0x3bdec669	0.0067985547
150	0xbd92b57f	-0.07163524
151	0xbd02f642	-0.03197313
152	0xbb4a85d5	-0.0030902524
153	0xbea97298	-0.3309524
154	0x3f9a607a	1.2060692
155	0xbf20f3c4	-0.62871957
156	0xbf25c87a	-0.6475903
157	0xbe5cc865	-0.2156082
158	0x3ef25d89	0.47336987
159	0x3f27cba3	0.655451
160	0x3ed08156	0.40723675
161	0xbcc4ed96	-0.024039071
162	0xbdfbe20d	-0.12298975
163	0x3ca1e88d	0.01976421
164	0xbc2191ea	-0.009861449
165	0x3a8be67e	0.001067355
166	0x3b64de67	0.0034922601
167	0xbbea2849	-0.0071459156
168	0xbb9234d6	-0.004461865
169	0xbbb238a4	-0.005438881
170	0xbe8ebae5	-0.27876964
171	0x3da9aacc	0.0828453
172	0xbcee1fa2	-0.029067818
173	0xbf1104a8	-0.5664773
174	0x3dcbc9ea	0.099506214
175	0x3eba0093	0.36328563
176	0x3eacebf0	0.33773756
177	0x3ee66d85	0.45005432
178	0xbf1cc352	-0.61235535
179	0x3e35d2e7	0.17756234
180	0xbeae924a	-0.34095985
181	0xbe15b3b8	-0.14619339
182	0xbe1c61ab	-0.15271632
183	0xbda7fc09	-0.08202369
184	0x3dc4e834	0.09614602
185	0xbd6b5549	-0.05745438
186	0x3decccdf	0.115625136
187	0xbe602e94	-0.21892768
188	0x3f8a467b	1.0802759
189	0x3c27f816	0.010252019
190	0xbe7927c6	-0.24331579
191	0xbdf65a23	-0.12028911
192	0x3f5dea4a	0.8668562
193	0x3f4e07ef	0.80480856
194	0x3ee8904b	0.45422587
195	0x3b918b57	0.0044416594
196	0xbd48eaf3	-0.04905219
197	0xbe7d8eb8	-0.24761474
198	0xbd3bfee8	-0.045897394
199	0xbbca607f	-0.006176054
200	0x3c9f2a3e	0.019429322
201	0xbd7d037e	-0.06177091
202	0xbcf7336b	-0.030175885
203	0x3c5e65a8	0.013574041
204	0x3dc5a5fe	0.09650801
205	0xbf242403	-0.6411745
206	0xbe8acb11	-0.27108052
207	0x3ef6cf74	0.4820515
208	0x3e15efba	0.1464223
209	0x3e9da193	0.30787334
210	0x3efcbe78	0.49364066
211	0x3ebebcd9	0.37253454
212	0x3ec8e2b5	0.39235464
213	0x39d152ab	0.0003992518
214	0xbe84e95e	-0.25959295
215	0xbdad3da5	-0.084590234
216	0x3c7a5ab9	0.015280419
217	0x3bbd9219	0.0057852385
218	0xbd3a4666	-0.045477293
219	0xbc169f06	-0.009193188
220	0x3c329d23	0.010901722
221	0xbee3c6f2	-0.4448772
222	0x3f31873d	0.6934698
223	0x3e4ca53e	0.1998491
224	0x3dea07a9	0.11427242
225	0x3da309d2	0.079608575
226	0x3f101129	0.56276184
227	0x3efd43f4	0.49465907
228	0x3ed58cba	0.41708928
229	0xbf1b35ef	-0.6062917
230	0xbe3b4801	-0.18289186
231	0xbd3505a3	-0.04419483
232	0xbd995228	-0.07486373
233	0xbd08640c	-0.033298537
234	0xbd725af8	-0.059168786
235	0x3db763bd	0.089545704
236	0x3e0c8273	0.13721637
237	0x3dbf1a63	0.09331205
238	0xbeaf3011	-0.3421636
239	0x3f49cd15	0.78828555
240	0xbe7b8405	-0.2456208
241	0xbf093d77	-0.5360941
242	0x3c1e6600	0.009667873
243	0x3f392d2c	0.7233455
244	0x3f45d66e	0.7728032
245	0x3f22de75	0.6362069
246	0xbe355810	-0.17709374
247	0x3e8ba789	0.27276257
248	0x3dd8c612	0.10584654
249	0xbb8ede6a	-0.00436001
250	0xbc6d7c3e	-0.014494954
251	0x3ce416d3	0.027842915
252	0x3d2ef919	0.042718027
253	0x3d0f3367	0.03496113
254	0x3cdf2f1c	0.027244143
255	0xbec278f5	-0.37982908

fc1.bias f4 [32]
0	0xbcc5d99c	-0.024151616
1	0x3e391c25	0.18077143
2	0xbdb2f132	-0.087374106
3	0xbe081f0d	-0.13293095
4	0xbea81a21	-0.32832435
5	0x3d8e4155	0.06946055
6	0x3da7c844	0.081924945
7	0xbdb71f5c	-0.08941528
8	0xbec71d4b	-0.38889536
9	0xbeb62c78	-0.35580802
10	0xbe1dfe11	-0.1542895
11	0x3c4fefe9	0.012691476
12	0x3dc4732b	0.09592279
13	0xbd8232ae	-0.06357323
14	0x3e286495	0.16444619
15	0x3d8cf139	0.06881947
16	0xbd6f9acb	-0.05849723
17	0x3b3c8619	0.0028766452
18	0x3e27040f	0.16310142
19	0xbd1bd4fc	-0.038044915
20	0xbe54b257	-0.20771156
21	0xbd7a5170	-0.06111282
22	0xbe9a4838	-0.30133224
23	0x3de27a51	0.11058486
24	0x3dfc4b8f	0.12319099
25	0x3d65805a	0.05603061
26	0x3f2f6c7a	0.685249
27	0x3e916ba4	0.28402436
28	0x3e49b6af	0.19698595
29	0x3e669eac	0.22521466
30	0xbd970a2e	-0.073749885
31	0xbd7350cf	-0.059403237

fc2.weight f4 [32, 32]
0	0x3e98a6f5	0.29814878
1	0x3dddd2dc	0.10831234
2	0x3e27c04f	0.16381954
3	0xbde24efd	-0.11050222
4	0x3dbbd24f	0.091709726
5	0xbdb3663c	-0.08759734
6	0xbd5448db	-0.051827293
7	0x3d412e90	0.047163546
8	0x3d9f2825	0.07771329
9	0x3ee71f56	0.45141095
10	0xbe09340e	-0.13398764
11	0x3dae52ef	0.08511912
12	0xbdcf92c2	-0.10135414
13	0xbc0ac7d2	-0.008470492
14	0x3ea4eb85	0.32210937
15	0x3e7b9d75	0.24571784
16	0xbd1db2e1	-0.03850067
17	0x3e6e15c3	0.23250489
18	0x3e1467fb	0.1449279
19	0x3e4625a8	0.19350302
20	0x3d9e9ad5	0.077443756
21	0xbdab6cd0	-0.08370364
22	0x3e801c89	0.2502177
23	0xbd35f253	-0.04442055
24	0x3d038836	0.032112323
25	0x3e795711	0.2434962
26	0xbe803b35	-0.2504517
27	0xbe5ccd6c	-0.21562737
28	0xbe006a13	-0.12540464
29	0x3ce8d81c	0.028423361
30	0x3bab39ed	0.005225411
31	0x3db4cfc2	0.08828689
32	0xbd95d60d	-0.073162176
33	0x3d69f2df	0.057116386
34	0xbd86b633	-0.065777205
35	0xbe16451f	-0.14674805
36	0xbdcd613d	-0.10028312
37	0xbdbdf3ae	-0.09274994
38	0xbda7fa62	-0.082020536
39	0xbddde1db	-0.10834094
40	0xbc91cb85	-0.017797241
41	0x3df47073	0.119355105
42	0xbd526748	-0.051368028
43	0x3cc57cbb	0.024107328
44	0x3cb4eb33	0.022084808
45	0xbc9ec403	-0.019380575
46	0x3d16f23c	0.036852106
47	0x3d109f06	0.035307907
48	0x3da7e4f2	0.08197965
49	0xbe54a1be	-0.20764825
50	0xbc7aacb5	-0.015299966
51	0xbd98d066	-0.07461624
52	0xbdbb13ff	-0.09134673
53	0xbe141d3b	-0.14464276
54	0x3d7171a8	0.05894628
55	0x3db79058	0.08963078
56	0xbe57436d	-0.21021815
57	0x3d235fad	0.039886165
58	0x3c405172	0.011738168
59	0xbd3a6e4e	-0.04551535
60	0xbda34506	-0.079721496
61	0x3d3b8de9	0.045789633
62	0xbd97c558	-0.07410687
63	0xbe0b91e1	-0.13629867
64	0x3e66201e	0.22473189
65	0x3e1431f3	0.14472179
66	0x3dfd2b35	0.12361757
67	0x3d02c8f9	0.031929944
68	0x3e0aceea	0.13555494
69	0x3de33e66	0.11095886
70	0xbdaaf6e6	-0.083478734
71	0x3da0a3d2	0.07843746
72	0x3e8576f7	0.26067325
73	0x3ecf6039	0.405031
74	0x3d06bbcf	0.032893952
75	0x3e9f52fb	0.31117997
76	0xbe43e039	-0.19128503
77	0x3da324d5	0.079660095
78	0x3dfd2598	0.12360686
79	0x3e8e56ca	0.2780059
80	0xbe1a7658	-0.15084207
81	0x3e590746	0.21194181
82	0xbdd1615c	-0.10223648
83	0x3e14172a	0.14461961
84	0x3e0f4005	0.13989265
85	0xbd57480f	-0.052558955
86	0x3e7e9ed7	0.2486528
87	0x3dde5ea3	0.10857894
88	0xbcb758df	-0.022381244
89	0x3e9913b1	0.29897836
90	0xbd26509e	-0.040604226
91	0xbd66913c	-0.05629085
92	0x3e336e8c	0.17522639
93	0xbe17e211	-0.14832331
94	0x3d8cdafd	0.06877706
95	0x3c2f9072	0.010715591
96	0x3c379deb	0.011207084
97	0xbda0bac5	-0.078481235
98	0xbcbff1f0	-0.023430794
99	0xbe54386d	-0.2072465
100	0xbe534688	-0.20632374
101	0xbda77e86	-0.08178429
102	0xbdc51c63	-0.09624555
103	0x3d9c975d	0.07646058
104	0x3d3cd076	0.04609724
105	0x3d447f2a	0.047972836
106	0xbe1297e5	-0.14315756
107	0xbe53d95a	-0.20688382
108	0xbe66ccd0	-0.22539067
109	0x3a7a50f1	0.00095488044
110	0xbe6ea90e	-0.23306677
111	0xbe7e02fa	-0.24805823
112	0xbe0f626c	-0.14002389
113	0xbe552036	-0.20813069
114	0xbe06539d	-0.13117833
115	0xbe36dd42	-0.1785784
116	0xbe2e0433	-0.1699379
117	0x3dbd7cf9	0.09252352
118	0xbdebd240	-0.115147114
119	0x3d8be6ea	0.06831153
120	0xbd98b8ab	-0.074570976
121	0xbdcbbea0	-0.09948468
122	0xbdedeea0	-0.1161778
123	0xbe3e2d6b	-0.18572013
124	0xbe5a9c06	-0.2134858
125	0x3d425d59	0.047452305
126	0xbe09fbc8	-0.13474953
127	0xbe7db6d9	-0.24776782
128	0x3eca7085	0.3953897
129	0x3da64436	0.08118479
130	0xbc463315	-0.01209714
131	0xbdfe2d59	-0.12410993
132	0xbcb291c4	-0.021798022
133	0xbdd703c8	-0.10498768
134	0x3e3e4583	0.18581204
135	0x3df36891	0.11885179
136	0x3e3fef89	0.18743719
137	0x3ea080b0	0.3134818
138	0xbc9b5798	-0.018962666
139	0x3cdf15f0	0.02723214
140	0xbe176ec9	-0.14788355
141	0x3e041eaa	0.12902322
142	0x3e4330ed	0.19061632
143	0x3db043b7	0.086066656
144	0x3d4cd4aa	0.0500075
145	0x3ea60e8d	0.32432976
146	0x3d9a72ef	0.07541453
147	0x3dca8f10	0.09890568
148	0x3d872b46	0.06600051
149	0xbc9d22c3	-0.019181615
150	0xbd23aaa9	-0.039957676
151	0x3e8a2134	0.26978457
152	0xbc8628d9	-0.0163769
153	0x3ea9da1f	0.33174226
154	0xbeac0515	-0.33597627
155	0xbde6d2fb	-0.1127071
156	0x3d8954f2	0.06705655
157	0xbe80cafe	-0.2515487
158	0x3d90fec3	0.07079842
159	0xbe55fe05	-0.20897682
160	0xbd606faf	-0.05479401
161	0xbdc435db	-0.095805846
162	0x3d62cf5a	0.055373527
163	0x3dbfdbc5	0.093680896
164	0xbd023ade	-0.03179442
165	0xbdadbf3c	-0.08483741
166	0xbe223f41	-0.15844442
167	0xbc46a56a	-0.012124399
168	0xbe1701fc	-0.1474685
169	0xbbcbbb2f	-0.0062173824
170	0xbe0f4953	-0.13992815
171	0x3d1df1e0	0.038560748
172	0x3d814936	0.06312792
173	0x3cf44a13	0.029820478
174	0xbd9df0bd	-0.07711933
175	0x39d51002	0.00040638453
176	0xbe71ab01	-0.23600389
177	0x3d8e1409	0.06937415
178	0xbde73838	-0.1129002
179	0xbbeebb21	-0.007285491
180	0xbdd42276	-0.103581354
181	0xbe03fd61	-0.12889625
182	0xbe20c358	-0.15699518
183	0x3d316190	0.043305933
184	0xbe3430db	-0.17596762
185	0xbdbede94	-0.09319797
186	0x3c8e1b70	0.017347068
187	0xbd2cc8d5	-0.042183716
188	0xbe5469b4	-0.20743448
189	0xbe816903	-0.2527543
190	0xbe277816	-0.16354403
191	0x3db85efa	0.0900249
192	0xbe4067b2	-0.18789557
193	0x3cc777f1	0.024349185
194	0x3d671907	0.056420352
195	0xbdffcc7f	-0.124901764
196	0xbe12aed8	-0.1432451
197	0xbe42de39	-0.19030084
198	0xbd10dc48	-0.035366327
199	0xbdafd65e	-0.08585809
200	0xbd75e242	-0.06003023
201	0x3c59e719	0.013299727
202	0x3b589243	0.0033046163
203	0xbde26496	-0.110543415
204	0xbd37f402	-0.04491044
205	0xbc3b4d63	-0.011432025
206	0xbd8c5cc0	-0.06853628
207	0xbceef050	-0.029167324
208	0xbe0a4d60	-0.13506079
209	0x3da18590	0.07886803
210	0xbdbb5b87	-0.09148317
211	0xbdba9e59	-0.09112234
212	0xbe6635f5	-0.2248152
213	0xbe46f18f	-0.19428085
214	0xbd839578	-0.06424993
215	0xbdc16878	-0.09443754
216	0xbe1e89e3	-0.15482287
217	0x3cb44ed8	0.022010252
218	0xbd9d759a	-0.07688446
219	0xbb54c64c	-0.0032466827
220	0x3d980182	0.074221626
221	0xbe0e33d7	-0.13886963
222	0xbe11db5b	-0.14243834
223	0xbdb48b37	-0.088156156
224	0xbd873c0e	-0.066032514
225	0xbe061ad1	-0.13096167
226	0xbd9c738e	-0.07639228
227	0xbd540598	-0.051763147
228	0x3d105536	0.035237513
229	0x3defb2d4	0.11704031
230	0x3d9c6d6c	0.07638058
231	0xbcf80597	-0.030276103
232	0xbd770eea	-0.060316958
233	0x3a13c52b	0.00056369853
234	0xbd6633ba	-0.056201674
235	0xbd91dfeb	-0.07122787
236	0x3caef825	0.021358559
237	0xbe412f7c	-0.1886577
238	0xbe4b8922	-0.19876531
239	0xbd33e732	-0.043921657
240	0xbdda2652	-0.1065184
241	0xbe054d2f	-0.13017724
242	0xbe59d382	-0.2127209
243	0x3d836531	0.06415785
244	0xbd5e58ae	-0.05428379
245	0xbe0edf8c	-0.13952464
246	0xbdede7c3	-0.11616471
247	0xbb47986c	-0.003045584
248	0xbe3a57f9	-0.18197621
249	0xbd27830e	-0.040896468
250	0xbd4e36ec	-0.050345346
251	0x3d27cbe2	0.040965922
252	0x3ccee6de	0.02525657
253	0xbe256b64	-0.16154248
254	0x3cc2ff5f	0.023803411
255	0x3dee98e3	0.116502546

fc2.bias f4 [32]
0	0xbe0e3ad4	-0.13889629
1	0xbd2f07da	-0.042732097
2	0x3c5fa41b	0.013649966
3	0xbda8a04c	-0.08233699
4	0x3d8a4cb9	0.06752915
5	0xbd83055f	-0.06397509
6	0xbdcd9497	-0.10038107
7	0xbe00b9b8	-0.12570846
8	0xbe1484fe	-0.14503857
9	0xbdf8ae30	-0.12142599
10	0xbe31b2a3	-0.17353301
11	0xbe639331	-0.22224118
12	0xbdef397d	-0.11680887
13	0xbd66b8ce	-0.056328587
14	0xbdd87c40	-0.10570574
15	0x3d531dea	0.0515422
16	0x3db0cd03	0.08632853
17	0x3caa6c03	0.020803457
18	0x3b8c41a3	0.0042802854
19	0xbdf87988	-0.12132555
20	0x3dedace1	0.1160524
21	0x3e0dc02a	0.13842836
22	0xbd427ccd	-0.0474823
23	0xbe5f84e5	-0.21828039
24	0x3daa7051	0.08322204
25	0xbdb1ac1e	-0.08675407
26	0xbe0dbc24	-0.13841301
27	0xbdeb6357	-0.11493557
28	0x3d9df231	0.0771221
29	0xbd6b7f1a	-0.05749426
30	0x3d69ef3d	0.05711292
31	0x3d93149e	0.07181667

fc3.weight f4 [1, 32]
0	0xbe73e115	-0.2381633
1	0xbbac1287	-0.005251232
2	0xbe7ca436	-0.24672017
3	0x3d950cac	0.072778076
4	0xbe631481	-0.2217579
5	0x3d41010f	0.04712015
6	0xbcca5c99	-0.024702357
7	0x3d96c99e	0.07362674
8	0xbe78bbd0	-0.24290395
9	0xbe191cde	-0.14952418
10	0x3cda84e9	0.026674705
11	0xbe764adc	-0.24051994
12	0xbdb7add2	-0.089687005
13	0x3d8162be	0.06317662
14	0xbe59807f	-0.21240424
15	0xbe401ccc	-0.18760985
16	0x3d181c29	0.03713623
17	0x3ee6bb88	0.4506495
18	0x3dc24b41	0.0948701
19	0xbe08f95a	-0.1337637
20	0x3f25a28a	0.6470114
21	0xbe274177	-0.16333567
22	0xbe1eb3d6	-0.1549829
23	0xbeb928a6	-0.36163825
24	0x3d66113b	0.056168776
25	0xbd9c25ed	-0.07624421
26	0x3cd88f12	0.026435409
27	0xbc2474ce	-0.010037614
28	0x3b6d751c	0.0036233133
29	0xbd3b6546	-0.04575088
30	0xbe4c64e0	-0.19960356
31	0xbe8eec3a	-0.27914602
